…
snapshot_prefix: "caffenet_fast_rcnn"
average_loss: 100
I0507 15:22:14.038481  8507 solver.cpp:61] Creating training net from train_net file: ../../models/CaffeNet_EECS6895/train.prototxt
I0507 15:22:14.038790  8507 net.cpp:42] Initializing net from parameters: 
name: "CaffeNet"
state {
  phase: TRAIN
}
layer {
  name: "data"
  type: "Python"
  top: "data"
  top: "rois"
  top: "labels"
  top: "bbox_targets"
  top: "bbox_loss_weights"
  python_param {
    module: "roi_data_layer.layer"
    layer: "RoIDataLayer"
    param_str: "\'num_classes\': 4"
  }
}
layer {
  name: "conv1"
  type: "Convolution"
  bottom: "data"
  top: "conv1"
  param {
    lr_mult: 0
    decay_mult: 0
  }
  param {
    lr_mult: 0
    decay_mult: 0
  }
  convolution_param {
    num_output: 96
    pad: 5
    kernel_size: 11
    stride: 4
  }
}
layer {
  name: "relu1"
  type: "ReLU"
  bottom: "conv1"
  top: "conv1"
}
layer {
  name: "pool1"
  type: "Pooling"
  bottom: "conv1"
  top: "pool1"
  pooling_param {
    pool: MAX
    kernel_size: 3
    stride: 2
    pad: 1
  }
}
layer {
  name: "norm1"
  type: "LRN"
  bottom: "pool1"
  top: "norm1"
  lrn_param {
    local_size: 5
    alpha: 0.0001
    beta: 0.75
  }
}
layer {
  name: "conv2"
  type: "Convolution"
  bottom: "norm1"
  top: "conv2"
  param {
    lr_mult: 1
    decay_mult: 1
  }
  param {
    lr_mult: 2
    decay_mult: 0
  }
  convolution_param {
    num_output: 256
    pad: 2
    kernel_size: 5
    group: 2
  }
}
layer {
  name: "relu2"
  type: "ReLU"
  bottom: "conv2"
  top: "conv2"
}
layer {
  name: "pool2"
  type: "Pooling"
  bottom: "conv2"
  top: "pool2"
  pooling_param {
    pool: MAX
    kernel_size: 3
    stride: 2
    pad: 1
  }
}
layer {
  name: "norm2"
  type: "LRN"
  bottom: "pool2"
  top: "norm2"
  lrn_param {
    local_size: 5
    alpha: 0.0001
    beta: 0.75
  }
}
layer {
  name: "conv3"
  type: "Convolution"
  bottom: "norm2"
  top: "conv3"
  param {
    lr_mult: 1
    decay_mult: 1
  }
  param {
    lr_mult: 2
    decay_mult: 0
  }
  convolution_param {
    num_output: 384
    pad: 1
    kernel_size: 3
  }
}
layer {
  name: "relu3"
  type: "ReLU"
  bottom: "conv3"
  top: "conv3"
}
layer {
  name: "conv4"
  type: "Convolution"
  bottom: "conv3"
  top: "conv4"
  param {
    lr_mult: 1
    decay_mult: 1
  }
  param {
    lr_mult: 2
    decay_mult: 0
  }
  convolution_param {
    num_output: 384
    pad: 1
    kernel_size: 3
    group: 2
  }
}
layer {
  name: "relu4"
  type: "ReLU"
  bottom: "conv4"
  top: "conv4"
}
layer {
  name: "conv5"
  type: "Convolution"
  bottom: "conv4"
  top: "conv5"
  param {
    lr_mult: 1
    decay_mult: 1
  }
  param {
    lr_mult: 2
    decay_mult: 0
  }
  convolution_param {
    num_output: 256
    pad: 1
    kernel_size: 3
    group: 2
  }
}
layer {
  name: "relu5"
  type: "ReLU"
  bottom: "conv5"
  top: "conv5"
}
layer {
  name: "roi_pool5"
  type: "ROIPooling"
  bottom: "conv5"
  bottom: "rois"
  top: "pool5"
  roi_pooling_param {
    pooled_h: 6
    pooled_w: 6
    spatial_scale: 0.0625
  }
}
layer {
  name: "fc6"
  type: "InnerProduct"
  bottom: "pool5"
  top: "fc6"
  param {
    lr_mult: 1
    decay_mult: 1
  }
  param {
    lr_mult: 2
    decay_mult: 0
  }
  inner_product_param {
    num_output: 4096
  }
}
layer {
  name: "relu6"
  type: "ReLU"
  bottom: "fc6"
  top: "fc6"
}
layer {
  name: "drop6"
  type: "Dropout"
  bottom: "fc6"
  top: "fc6"
  dropout_param {
    dropout_ratio: 0.5
  }
}
layer {
  name: "fc7"
  type: "InnerProduct"
  bottom: "fc6"
  top: "fc7"
  param {
    lr_mult: 1
    decay_mult: 1
  }
  param {
    lr_mult: 2
    decay_mult: 0
  }
  inner_product_param {
    num_output: 4096
  }
}
layer {
  name: "relu7"
  type: "ReLU"
  bottom: "fc7"
  top: "fc7"
}
layer {
  name: "drop7"
  type: "Dropout"
  bottom: "fc7"
  top: "fc7"
  dropout_param {
    dropout_ratio: 0.5
  }
}
layer {
  name: "cls_score"
  type: "InnerProduct"
  bottom: "fc7"
  top: "cls_score"
  param {
    lr_mult: 1
    decay_mult: 1
  }
  param {
    lr_mult: 2
    decay_mult: 0
  }
  inner_product_param {
    num_output: 4
    weight_filler {
      type: "gaussian"
      std: 0.01
    }
    bias_filler {
      type: "constant"
      value: 0
    }
  }
}
layer {
  name: "bbox_pred"
  type: "InnerProduct"
  bottom: "fc7"
  top: "bbox_pred"
  param {
    lr_mult: 1
    decay_mult: 1
  }
  param {
    lr_mult: 2
    decay_mult: 0
  }
  inner_product_param {
    num_output: 16
    weight_filler {
      type: "gaussian"
      std: 0.001
    }
    bias_filler {
      type: "constant"
      value: 0
    }
  }
}
layer {
  name: "loss_cls"
  type: "SoftmaxWithLoss"
  bottom: "cls_score"
  bottom: "labels"
  top: "loss_cls"
  loss_weight: 1
}
layer {
  name: "loss_bbox"
  type: "SmoothL1Loss"
  bottom: "bbox_pred"
  bottom: "bbox_targets"
  bottom: "bbox_loss_weights"
  top: "loss_bbox"
  loss_weight: 1
}
I0507 15:22:14.038874  8507 layer_factory.hpp:74] Creating layer data
I0507 15:22:14.138044  8507 net.cpp:84] Creating Layer data
I0507 15:22:14.138069  8507 net.cpp:338] data -> data
I0507 15:22:14.138084  8507 net.cpp:338] data -> rois
I0507 15:22:14.138093  8507 net.cpp:338] data -> labels
I0507 15:22:14.138103  8507 net.cpp:338] data -> bbox_targets
I0507 15:22:14.138109  8507 net.cpp:338] data -> bbox_loss_weights
I0507 15:22:14.138118  8507 net.cpp:113] Setting up data
I0507 15:22:14.139008  8507 net.cpp:120] Top shape: 1 3 100 100 (30000)
I0507 15:22:14.139026  8507 net.cpp:120] Top shape: 1 5 (5)
I0507 15:22:14.139031  8507 net.cpp:120] Top shape: 1 (1)
I0507 15:22:14.139036  8507 net.cpp:120] Top shape: 1 16 (16)
I0507 15:22:14.139040  8507 net.cpp:120] Top shape: 1 16 (16)
I0507 15:22:14.139045  8507 layer_factory.hpp:74] Creating layer conv1
I0507 15:22:14.139057  8507 net.cpp:84] Creating Layer conv1
I0507 15:22:14.139066  8507 net.cpp:380] conv1 <- data
I0507 15:22:14.139075  8507 net.cpp:338] conv1 -> conv1
I0507 15:22:14.139083  8507 net.cpp:113] Setting up conv1
I0507 15:22:14.139143  8507 net.cpp:120] Top shape: 1 96 25 25 (60000)
I0507 15:22:14.139158  8507 layer_factory.hpp:74] Creating layer relu1
I0507 15:22:14.139169  8507 net.cpp:84] Creating Layer relu1
I0507 15:22:14.139173  8507 net.cpp:380] relu1 <- conv1
I0507 15:22:14.139179  8507 net.cpp:327] relu1 -> conv1 (in-place)
I0507 15:22:14.139185  8507 net.cpp:113] Setting up relu1
I0507 15:22:14.139192  8507 net.cpp:120] Top shape: 1 96 25 25 (60000)
I0507 15:22:14.139195  8507 layer_factory.hpp:74] Creating layer pool1
I0507 15:22:14.139201  8507 net.cpp:84] Creating Layer pool1
I0507 15:22:14.139205  8507 net.cpp:380] pool1 <- conv1
I0507 15:22:14.139210  8507 net.cpp:338] pool1 -> pool1
I0507 15:22:14.139217  8507 net.cpp:113] Setting up pool1
I0507 15:22:14.139226  8507 net.cpp:120] Top shape: 1 96 13 13 (16224)
I0507 15:22:14.139230  8507 layer_factory.hpp:74] Creating layer norm1
I0507 15:22:14.139238  8507 net.cpp:84] Creating Layer norm1
I0507 15:22:14.139242  8507 net.cpp:380] norm1 <- pool1
I0507 15:22:14.139247  8507 net.cpp:338] norm1 -> norm1
I0507 15:22:14.139255  8507 net.cpp:113] Setting up norm1
I0507 15:22:14.139261  8507 net.cpp:120] Top shape: 1 96 13 13 (16224)
I0507 15:22:14.139264  8507 layer_factory.hpp:74] Creating layer conv2
I0507 15:22:14.139271  8507 net.cpp:84] Creating Layer conv2
I0507 15:22:14.139274  8507 net.cpp:380] conv2 <- norm1
I0507 15:22:14.139281  8507 net.cpp:338] conv2 -> conv2
I0507 15:22:14.139288  8507 net.cpp:113] Setting up conv2
I0507 15:22:14.139926  8507 net.cpp:120] Top shape: 1 256 13 13 (43264)
I0507 15:22:14.139940  8507 layer_factory.hpp:74] Creating layer relu2
I0507 15:22:14.139946  8507 net.cpp:84] Creating Layer relu2
I0507 15:22:14.139950  8507 net.cpp:380] relu2 <- conv2
I0507 15:22:14.139955  8507 net.cpp:327] relu2 -> conv2 (in-place)
I0507 15:22:14.139961  8507 net.cpp:113] Setting up relu2
I0507 15:22:14.139966  8507 net.cpp:120] Top shape: 1 256 13 13 (43264)
I0507 15:22:14.139969  8507 layer_factory.hpp:74] Creating layer pool2
I0507 15:22:14.139974  8507 net.cpp:84] Creating Layer pool2
I0507 15:22:14.139977  8507 net.cpp:380] pool2 <- conv2
I0507 15:22:14.139983  8507 net.cpp:338] pool2 -> pool2
I0507 15:22:14.139988  8507 net.cpp:113] Setting up pool2
I0507 15:22:14.139997  8507 net.cpp:120] Top shape: 1 256 7 7 (12544)
I0507 15:22:14.140000  8507 layer_factory.hpp:74] Creating layer norm2
I0507 15:22:14.140007  8507 net.cpp:84] Creating Layer norm2
I0507 15:22:14.140010  8507 net.cpp:380] norm2 <- pool2
I0507 15:22:14.140015  8507 net.cpp:338] norm2 -> norm2
I0507 15:22:14.140022  8507 net.cpp:113] Setting up norm2
I0507 15:22:14.140028  8507 net.cpp:120] Top shape: 1 256 7 7 (12544)
I0507 15:22:14.140031  8507 layer_factory.hpp:74] Creating layer conv3
I0507 15:22:14.140036  8507 net.cpp:84] Creating Layer conv3
I0507 15:22:14.140039  8507 net.cpp:380] conv3 <- norm2
I0507 15:22:14.140044  8507 net.cpp:338] conv3 -> conv3
I0507 15:22:14.140050  8507 net.cpp:113] Setting up conv3
I0507 15:22:14.141672  8507 net.cpp:120] Top shape: 1 384 7 7 (18816)
I0507 15:22:14.141686  8507 layer_factory.hpp:74] Creating layer relu3
I0507 15:22:14.141692  8507 net.cpp:84] Creating Layer relu3
I0507 15:22:14.141695  8507 net.cpp:380] relu3 <- conv3
I0507 15:22:14.141701  8507 net.cpp:327] relu3 -> conv3 (in-place)
I0507 15:22:14.141706  8507 net.cpp:113] Setting up relu3
I0507 15:22:14.141712  8507 net.cpp:120] Top shape: 1 384 7 7 (18816)
I0507 15:22:14.141716  8507 layer_factory.hpp:74] Creating layer conv4
I0507 15:22:14.141721  8507 net.cpp:84] Creating Layer conv4
I0507 15:22:14.141724  8507 net.cpp:380] conv4 <- conv3
I0507 15:22:14.141729  8507 net.cpp:338] conv4 -> conv4
I0507 15:22:14.141736  8507 net.cpp:113] Setting up conv4
I0507 15:22:14.143376  8507 net.cpp:120] Top shape: 1 384 7 7 (18816)
I0507 15:22:14.143389  8507 layer_factory.hpp:74] Creating layer relu4
I0507 15:22:14.143394  8507 net.cpp:84] Creating Layer relu4
I0507 15:22:14.143399  8507 net.cpp:380] relu4 <- conv4
I0507 15:22:14.143404  8507 net.cpp:327] relu4 -> conv4 (in-place)
I0507 15:22:14.143409  8507 net.cpp:113] Setting up relu4
I0507 15:22:14.143415  8507 net.cpp:120] Top shape: 1 384 7 7 (18816)
I0507 15:22:14.143419  8507 layer_factory.hpp:74] Creating layer conv5
I0507 15:22:14.143424  8507 net.cpp:84] Creating Layer conv5
I0507 15:22:14.143426  8507 net.cpp:380] conv5 <- conv4
I0507 15:22:14.143431  8507 net.cpp:338] conv5 -> conv5
I0507 15:22:14.143437  8507 net.cpp:113] Setting up conv5
I0507 15:22:14.144522  8507 net.cpp:120] Top shape: 1 256 7 7 (12544)
I0507 15:22:14.144536  8507 layer_factory.hpp:74] Creating layer relu5
I0507 15:22:14.144541  8507 net.cpp:84] Creating Layer relu5
I0507 15:22:14.144546  8507 net.cpp:380] relu5 <- conv5
I0507 15:22:14.144551  8507 net.cpp:327] relu5 -> conv5 (in-place)
I0507 15:22:14.144556  8507 net.cpp:113] Setting up relu5
I0507 15:22:14.144560  8507 net.cpp:120] Top shape: 1 256 7 7 (12544)
I0507 15:22:14.144563  8507 layer_factory.hpp:74] Creating layer roi_pool5
I0507 15:22:14.144570  8507 net.cpp:84] Creating Layer roi_pool5
I0507 15:22:14.144573  8507 net.cpp:380] roi_pool5 <- conv5
I0507 15:22:14.144577  8507 net.cpp:380] roi_pool5 <- rois
I0507 15:22:14.144583  8507 net.cpp:338] roi_pool5 -> pool5
I0507 15:22:14.144589  8507 net.cpp:113] Setting up roi_pool5
I0507 15:22:14.144593  8507 roi_pooling_layer.cpp:30] Spatial scale: 0.0625
I0507 15:22:14.144615  8507 net.cpp:120] Top shape: 1 256 6 6 (9216)
I0507 15:22:14.144619  8507 layer_factory.hpp:74] Creating layer fc6
I0507 15:22:14.144629  8507 net.cpp:84] Creating Layer fc6
I0507 15:22:14.144637  8507 net.cpp:380] fc6 <- pool5
I0507 15:22:14.144644  8507 net.cpp:338] fc6 -> fc6
I0507 15:22:14.144652  8507 net.cpp:113] Setting up fc6
I0507 15:22:14.189419  8507 net.cpp:120] Top shape: 1 4096 (4096)
I0507 15:22:14.189447  8507 layer_factory.hpp:74] Creating layer relu6
I0507 15:22:14.189456  8507 net.cpp:84] Creating Layer relu6
I0507 15:22:14.189460  8507 net.cpp:380] relu6 <- fc6
I0507 15:22:14.189467  8507 net.cpp:327] relu6 -> fc6 (in-place)
I0507 15:22:14.189474  8507 net.cpp:113] Setting up relu6
I0507 15:22:14.189479  8507 net.cpp:120] Top shape: 1 4096 (4096)
I0507 15:22:14.189482  8507 layer_factory.hpp:74] Creating layer drop6
I0507 15:22:14.189488  8507 net.cpp:84] Creating Layer drop6
I0507 15:22:14.189491  8507 net.cpp:380] drop6 <- fc6
I0507 15:22:14.189494  8507 net.cpp:327] drop6 -> fc6 (in-place)
I0507 15:22:14.189499  8507 net.cpp:113] Setting up drop6
I0507 15:22:14.189505  8507 net.cpp:120] Top shape: 1 4096 (4096)
I0507 15:22:14.189507  8507 layer_factory.hpp:74] Creating layer fc7
I0507 15:22:14.189513  8507 net.cpp:84] Creating Layer fc7
I0507 15:22:14.189515  8507 net.cpp:380] fc7 <- fc6
I0507 15:22:14.189520  8507 net.cpp:338] fc7 -> fc7
I0507 15:22:14.189530  8507 net.cpp:113] Setting up fc7
I0507 15:22:14.207718  8507 net.cpp:120] Top shape: 1 4096 (4096)
I0507 15:22:14.207741  8507 layer_factory.hpp:74] Creating layer relu7
I0507 15:22:14.207749  8507 net.cpp:84] Creating Layer relu7
I0507 15:22:14.207754  8507 net.cpp:380] relu7 <- fc7
I0507 15:22:14.207761  8507 net.cpp:327] relu7 -> fc7 (in-place)
I0507 15:22:14.207767  8507 net.cpp:113] Setting up relu7
I0507 15:22:14.207772  8507 net.cpp:120] Top shape: 1 4096 (4096)
I0507 15:22:14.207773  8507 layer_factory.hpp:74] Creating layer drop7
I0507 15:22:14.207778  8507 net.cpp:84] Creating Layer drop7
I0507 15:22:14.207782  8507 net.cpp:380] drop7 <- fc7
I0507 15:22:14.207784  8507 net.cpp:327] drop7 -> fc7 (in-place)
I0507 15:22:14.207788  8507 net.cpp:113] Setting up drop7
I0507 15:22:14.207794  8507 net.cpp:120] Top shape: 1 4096 (4096)
I0507 15:22:14.207797  8507 layer_factory.hpp:74] Creating layer fc7_drop7_0_split
I0507 15:22:14.207801  8507 net.cpp:84] Creating Layer fc7_drop7_0_split
I0507 15:22:14.207803  8507 net.cpp:380] fc7_drop7_0_split <- fc7
I0507 15:22:14.207808  8507 net.cpp:338] fc7_drop7_0_split -> fc7_drop7_0_split_0
I0507 15:22:14.207814  8507 net.cpp:338] fc7_drop7_0_split -> fc7_drop7_0_split_1
I0507 15:22:14.207819  8507 net.cpp:113] Setting up fc7_drop7_0_split
I0507 15:22:14.207823  8507 net.cpp:120] Top shape: 1 4096 (4096)
I0507 15:22:14.207826  8507 net.cpp:120] Top shape: 1 4096 (4096)
I0507 15:22:14.207828  8507 layer_factory.hpp:74] Creating layer cls_score
I0507 15:22:14.207835  8507 net.cpp:84] Creating Layer cls_score
I0507 15:22:14.207839  8507 net.cpp:380] cls_score <- fc7_drop7_0_split_0
I0507 15:22:14.207844  8507 net.cpp:338] cls_score -> cls_score
I0507 15:22:14.207849  8507 net.cpp:113] Setting up cls_score
I0507 15:22:14.208073  8507 net.cpp:120] Top shape: 1 4 (4)
I0507 15:22:14.208081  8507 layer_factory.hpp:74] Creating layer bbox_pred
I0507 15:22:14.208086  8507 net.cpp:84] Creating Layer bbox_pred
I0507 15:22:14.208091  8507 net.cpp:380] bbox_pred <- fc7_drop7_0_split_1
I0507 15:22:14.208094  8507 net.cpp:338] bbox_pred -> bbox_pred
I0507 15:22:14.208101  8507 net.cpp:113] Setting up bbox_pred
I0507 15:22:14.208951  8507 net.cpp:120] Top shape: 1 16 (16)
I0507 15:22:14.208964  8507 layer_factory.hpp:74] Creating layer loss_cls
I0507 15:22:14.208971  8507 net.cpp:84] Creating Layer loss_cls
I0507 15:22:14.208973  8507 net.cpp:380] loss_cls <- cls_score
I0507 15:22:14.208976  8507 net.cpp:380] loss_cls <- labels
I0507 15:22:14.208981  8507 net.cpp:338] loss_cls -> loss_cls
I0507 15:22:14.208986  8507 net.cpp:113] Setting up loss_cls
I0507 15:22:14.208991  8507 layer_factory.hpp:74] Creating layer loss_cls
…
